myapp/lib/models/umkm_forecast.tflite (tflite, 27572 bytes, 7 tensors)

arith.constant f2 [128, 13]
00000000: f028 852c a32b dcaf 6f2c 382c 28af a8b2
00000010: 3eb0 e0b5 08af 642e a9ac 9da0 a5a6 6ea8
00000020: fe26 c929 5e35 deae 3c97 09ac 6d2f 5e35
00000030: e027 25b2 85ad 8da5 3db0 3b18 8624 8d34
00000040: 97ac 072d 601e c235 8bb0 3914 cfaa d5ab
00000050: 75a8 e227 6a19 582b 7934 1fb0 8eb1 ce30
00000060: ef2f 2935 7925 ed2c 3a2b 05a5 aead 40a9
00000070: a4aa 82af 3334 b1b0 3cb0 ed36 db35 b32a
00000080: fdae a729 c2a8 3dab 1427 3cad 01b1 57a8
00000090: ae30 c634 5435 262c 39ab 9425 072c bdb1
000000a0: deab 9c2d 5224 66b0 c92f bd30 102e b0b4
000000b0: 2c34 440c 95a7 ff1a 349d 532a b4b0 1c1f
000000c0: ab32 3924 33a8 5421 852f 93b3 5625 0230
000000d0: b02c eb94 a0ac 3122 5195 0134 8a2c 64b6
000000e0: ea31 3fba 36b5 8621 1da6 29ae 06a0 e1aa
000000f0: beab 032a f02e 3aa7 e6a8 5433 aa32 f3ae
00000100: 991f ffa8 3629 01a1 f2ae d532 51ab 6721
00000110: da2d 97b1 e3b3 ac38 c834 2320 8897 402c
00000120: d326 799a aa28 a4aa cb2a 05a9 1bab 0427
00000130: 5a36 e42f 8629 03a7 6a28 cdb0 c6ae f3b0
00000140: 44b1 eea9 27b0 c7af 622e 38ac 7a32 97b0
00000150: 7e30 9d2c 1bb1 baa6 f00b f01c 7ab5 3c2a
00000160: 9728 912d 502c b22d 3328 88ac c322 d60d
00000170: d4ac b7ac 05a9 fca9 4836 bdac 71b0 cfb3
00000180: 8731 7ca5 732a 3c31 22ac 0fa6 88ac 7aad
00000190: d82f f4a3 bf2c 6432 ed2c 9335 fd2c 6dab
000001a0: a62b 05a8 0c23 1cab 902e 3031 d4a9 b4ac
000001b0: aeae 9435 92b1 772c 512c f026 61a3 00ac
000001c0: e8ab 4eac 56b0 52a6 0129 1936 6a31 f328
000001d0: b1a6 44a8 7e28 b0a1 bd2f bfa9 f120 122e
000001e0: e4a7 21b8 f32e 0a29 e0b7 06a2 da28 e728
000001f0: 432b 71ad 8d9d 94ac 032f 5aad b930 e8b3
0.03857 0.0706 0.05966 -0.1228 0.0693 0.0659 -0.1118 -0.208
-0.1326 -0.3672 -0.10986 0.09985 -0.0728 -0.00901 -0.02596 -0.0346
0.02731 0.0452 0.3354 -0.1073 -0.001766 -0.06305 0.116 0.3354
0.03076 -0.192 -0.08624 -0.02168 -0.1324 0.002066 0.01767 0.2844
-0.0717 0.07855 0.006226 0.3599 -0.142 0.001031 -0.0532 -0.0612
-0.03482 0.03079 0.002644 0.05737 0.2795 -0.1288 -0.1736 0.1501
0.12396 0.3225 0.02138 0.07697 0.05646 -0.0196 -0.08875 -0.04102
-0.05188 -0.1173 0.2625 -0.1466 -0.1323 0.4329 0.366 0.05234
-0.1092 0.04416 -0.03717 -0.05655 0.02765 -0.0818 -0.1564 -0.0339
0.1462 0.2983 0.333 0.0648 -0.05643 0.02179 0.0629 -0.1793
-0.06146 0.08765 0.01688 -0.1375 0.12164 0.1481 0.0947 -0.293
0.2607 0.0002604 -0.02962 0.003416 -0.00508 0.0494 -0.147 0.006943
0.2084 0.0165 -0.0328 0.01041 0.1175 -0.2367 0.02084 0.1252
0.07324 -0.001201 -0.07227 0.01209 -0.001298 0.2502 0.0709 -0.3994
0.1848 -0.781 -0.3257 0.01079 -0.02388 -0.09625 -0.00786 -0.05374
-0.0605 0.04697 0.1084 -0.02823 -0.03827 0.229 0.2083 -0.1086
0.00742 -0.03903 0.0407 -0.00977 -0.1085 0.2135 -0.05716 0.01055
0.09143 -0.1747 -0.2465 0.584 0.2988 0.00808 -0.001839 0.0664
0.02666 -0.00316 0.03644 -0.05188 0.05307 -0.0392 -0.0555 0.0274
0.397 0.1233 0.04315 -0.02739 0.0345 -0.15 -0.10583 -0.1547
-0.1646 -0.04633 -0.1298 -0.1215 0.09973 -0.0659 0.2024 -0.1434
0.1404 0.0721 -0.1595 -0.02628 0.0002422 0.00482 -0.3423 0.0487
0.03586 0.087 0.0674 0.089 0.0328 -0.0708 0.01321 0.0003562
-0.07544 -0.07367 -0.0392 -0.04675 0.3926 -0.07404 -0.1388 -0.244
0.1727 -0.02142 0.05038 0.1636 -0.0646 -0.02367 -0.0708 -0.0856
0.12256 -0.01553 0.07416 0.1997 0.07697 0.3484 0.07794 -0.058
0.05975 -0.0314 0.01376 -0.05554 0.10254 0.1621 -0.04553 -0.0735
-0.1044 0.3486 -0.1741 0.06976 0.06744 0.0271 -0.01441 -0.0625
-0.06177 -0.06726 -0.1355 -0.02469 0.0391 0.381 0.1692 0.03867
-0.02614 -0.03333 0.0351 -0.01111 0.1209 -0.0449 0.00965 0.09485
-0.03082 -0.516 0.1086 0.03937 -0.4922 -0.011765 0.0379 0.0383
0.05673 -0.085 -0.00542 -0.07153 0.10956 -0.0836 0.1476 -0.2471

arith.constant1 f2 [128]
00000000: 2a26 25b4 19b4 3bb5 2532 42b4 b3ac 8ab0
00000010: 8033 86b5 6438 23b0 0000 62af 0ea8 18b5
00000020: fcad 61b6 1a38 3e2f 84a1 1bb7 83b3 742d
00000030: 68b3 a325 6531 4832 43b3 04ad fbb2 6a33
00000040: 1bb3 c62d 6bb6 1eb2 f9ae a8a1 94b6 342c
00000050: fcb3 53b2 242c 45ae 28b4 aaab 42b4 c224
00000060: fa32 99b5 64ab 9b33 0336 14b5 3db2 e32e
00000070: b7b0 f835 d834 2c2e 09b3 5eb0 edb1 b134
00000080: f6a1 96b3 4235 3ca5 7434 7631 16a8 fcb2
00000090: 89b2 c4b4 23b5 4f31 8633 f8b2 5db4 412e
000000a0: 27b3 5d35 88ae 1fa7 eeb2 91a4 15b4 18b3
000000b0: 7fb5 28b0 1f2f 6e05 2e34 1b29 09a2 e92d
000000c0: a034 3cb1 0000 981f 36b4 1d29 a7b3 a48a
000000d0: 79af d331 31a4 84ab 6cb0 0000 5931 6cb1
000000e0: 8fb0 01b3 aeb4 2a31 fd30 49a9 e42b 67b6
000000f0: 1bad c62b 2d30 21b2 99b2 742d fcaf d4ae
0.02408 -0.259 -0.256 -0.327 0.192 -0.266 -0.0734 -0.1418
0.2344 -0.3452 0.549 -0.1293 0.0 -0.11536 -0.03168 -0.3184
-0.0935 -0.3987 0.5127 0.11316 -0.01077 -0.444 -0.2347 0.0852
-0.2314 0.02202 0.1686 0.1963 -0.2269 -0.07837 -0.2181 0.2317
-0.222 0.0902 -0.4011 -0.1912 -0.10895 -0.01105 -0.4111 0.0657
-0.2495 -0.1976 0.0647 -0.09796 -0.2598 -0.05988 -0.266 0.01859
0.218 -0.3499 -0.05774 0.2377 0.3757 -0.3174 -0.195 0.1076
-0.1473 0.373 0.3027 0.09644 -0.2198 -0.1365 -0.1852 0.2932
-0.01164 -0.237 0.3286 -0.02045 0.2783 0.1707 -0.03192 -0.2183
-0.2042 -0.2979 -0.321 0.1659 0.2351 -0.2178 -0.2727 0.0977
-0.2235 0.3352 -0.10205 -0.02782 -0.2166 -0.01784 -0.2551 -0.2217
-0.3435 -0.1299 0.11127 8.285e-05 0.2612 0.0399 -0.01179 0.09235
0.289 -0.1636 0.0 0.007416 -0.2632 0.03995 -0.2391 -0.0002027
-0.11676 0.182 -0.01637 -0.05872 -0.1382 0.0 0.1671 -0.1694
-0.1425 -0.2189 -0.2925 0.1614 0.1559 -0.0413 0.06165 -0.4001
-0.0798 0.06073 0.1305 -0.1915 -0.2062 0.0852 -0.12476 -0.1067

arith.constant2 f2 [64]
00000000: aeaf 762b c9a8 172d 8928 e728 8834 c5a9
00000010: 04ae 91ac 5029 3927 5836 88a8 512a f92c
00000020: 0025 dd2c 16b0 bc2f 5f30 b0af bab2 e0a9
00000030: 0215 2034 572b 1b32 5c2c 312f 51a7 782d
00000040: 282f 13aa 0936 2b33 76ae 3931 3316 1e30
00000050: 3732 232e 2dac 8929 092a 582c cfac 8aa4
00000060: 2daa f826 1731 94a9 97a8 7fae 12ac 4530
00000070: 5230 ee34 46a8 55a9 71a9 77a6 f0ac e42d
-0.12 0.0583 -0.03738 0.0795 0.03543 0.0383 0.2832 -0.04507
-0.094 -0.07135 0.0415 0.02821 0.3965 -0.0354 0.04935 0.0777
0.01953 0.076 -0.1277 0.12085 0.1366 -0.1201 -0.2102 -0.0459
0.001223 0.2578 0.05734 0.1908 0.0681 0.11237 -0.02858 0.08545
0.1118 -0.04745 0.3772 0.224 -0.10095 0.1632 0.0015135 0.1287
0.1942 0.0959 -0.06525 0.04324 0.04715 0.0679 -0.07513 -0.01773
-0.04825 0.02722 0.159 -0.04358 -0.03586 -0.1015 -0.0636 0.1334
0.135 0.308 -0.0334 -0.04166 -0.0425 -0.02525 -0.07715 0.09204

arith.constant3 f2 [32]
00000000: aaa8 09a8 f1a8 4034 02a4 45ad 1c34 f637
00000010: 61ac 2fa9 2737 a233 ef34 01ab 8dac f7a8
00000020: 7137 8632 51a9 5e36 6bac 3336 bb38 aba9
00000030: ecb4 c735 88aa 3aa9 afb1 7f34 1839 fe34
-0.03644 -0.03152 -0.0386 0.2656 -0.01566 -0.08234 0.2568 0.4976
-0.0684 -0.0405 0.447 0.2385 0.3083 -0.05472 -0.0711 -0.0388
0.465 0.2039 -0.04153 0.398 -0.06903 0.3875 0.5913 -0.04428
-0.3076 0.361 -0.05103 -0.04083 -0.1776 0.281 0.6367 0.312

arith.constant5 f2 [64, 128]
00000000: 02a9 78a8 0aaf b72a 89b4 3db0 bc33 3630
00000010: bdb2 1413 36b3 992d ce2a 85a6 5e32 bc2c
00000020: f2aa 60af 76b8 4caf d630 b1af 622e 90af
00000030: 482a 4525 762a 94a5 f2b1 8faa 5229 8fb6
00000040: f6b0 65b1 6430 a9ae 9fae 4ba5 7fac 36ae
00000050: 3ab1 45ad 4a33 0d33 6ba9 139e 1aac 1123
00000060: 55af e52d eb28 b3b3 feab 25b4 3622 4fac
00000070: 112b d4b5 d0ae e9b0 1daf e9b2 f1aa ada1
00000080: ca30 3931 3728 192c 93b6 81b4 731d a12d
00000090: 5e2e faa2 b125 a2ac 45a7 2c2d 2029 ba25
000000a0: 6da9 63ac 4aae 8ca6 152d 842f 10b4 bb27
000000b0: 74b1 70b0 f9ac 63a5 32b5 f5b3 6fb0 5528
000000c0: 38b7 062a 3831 d9ae 842c 1ba1 ec29 43af
000000d0: dcb3 8ab4 2630 3f2c f49a 0d2c fcb1 89ac
000000e0: 0e2f 61a0 d42b ffb1 e5ab 091f d72b 99a6
000000f0: 8db1 6f96 fbb2 5925 d3b2 f2a8 5024 b02d
00000100: 4bad f8a8 42b0 74a7 c4a8 1b30 d923 9d2e
00000110: 03b2 95a6 f5ab fa29 cc29 d7ac a7b1 b52a
00000120: 3a2e 32ad c627 3bb0 58b2 efac dca9 4230
00000130: dca0 162e 94ad d2b0 b3a3 87ac 2599 48b3
00000140: f530 67ab 962d 7b32 6f29 a1b1 c9ae 39a5
00000150: 5431 d72f 28ac adad a8a6 6d30 2324 7bac
00000160: 86ac 0faf c1a8 90a8 1bb5 7d19 bcaf 5aad
00000170: d12d 4230 f4a4 b5a8 a7af f230 51ad 9c2e
00000180: 6629 15b1 7031 56a6 42b2 f735 90ad 61a2
00000190: 832d dc28 c9a2 5d2e 932c aca9 94b0 9eb0
000001a0: 8b2c b6b2 11a9 ef25 2c25 d0ab d9ac 3930
000001b0: 5621 a0a6 12b1 beb2 7ab4 b12d 04b0 d525
000001c0: 1e32 82ab 4ca1 3e34 8726 33ab 3c96 06b1
000001d0: a22f d1b0 662b efaf 491d ee2c 93ac 9fab
000001e0: 142b 25a2 a529 ba28 ceaa 53af 1130 7fad
000001f0: b9a1 7cab 6f34 48b0 e728 012e 2230 0e2d
-0.03912 -0.0349 -0.11 0.05246 -0.2834 -0.1324 0.2417 0.1316
-0.2106 0.000864 -0.2253 0.08746 0.05316 -0.02547 0.199 0.074
-0.05426 -0.11523 -0.5576 -0.114 0.1511 -0.1202 0.09973 -0.11816
0.04907 0.02058 0.05048 -0.02179 -0.1858 -0.05124 0.04156 -0.41
-0.155 -0.1686 0.1372 -0.10406 -0.10345 -0.02068 -0.07025 -0.09705
-0.1633 -0.08234 0.2278 0.2203 -0.04233 -0.00593 -0.0641 0.0138
-0.11456 0.0921 0.03842 -0.2406 -0.06244 -0.259 0.01213 -0.0673
0.0552 -0.3643 -0.10645 -0.1534 -0.11115 -0.216 -0.05423 -0.011086
0.1497 0.1632 0.03293 0.064 -0.411 -0.2815 0.00532 0.08795
0.0995 -0.013626 0.02223 -0.0724 -0.0284 0.0808 0.04004 0.02237
-0.0424 -0.06854 -0.09827 -0.02557 0.0794 0.11743 -0.254 0.0302
-0.1704 -0.1387 -0.0777 -0.02104 -0.3247 -0.2487 -0.1385 0.03384
-0.4512 0.04706 0.1631 -0.107 0.07056 -0.00997 0.04626 -0.11346
-0.2456 -0.2837 0.1296 0.06635 -0.003395 0.0633 -0.187 -0.07086
0.1102 -0.00855 0.06116 -0.1874 -0.06168 0.00687 0.06125 -0.02577
-0.1735 -0.001571 -0.2181 0.02089 -0.2133 -0.03864 0.01685 0.08887
-0.0827 -0.03882 -0.133 -0.02911 -0.03723 0.1283 0.01533 0.10333
-0.1879 -0.02571 -0.06216 0.0467 0.0453 -0.0756 -0.1766 0.0524
0.0973 -0.0812 0.03036 -0.1322 -0.1982 -0.0771 -0.04578 0.133
-0.00949 0.0951 -0.08716 -0.1506 -0.01504 -0.07074 -0.002512 -0.2275
0.1549 -0.05783 0.0873 0.2025 0.04245 -0.1759 -0.106 -0.0204
0.1665 0.1225 -0.06494 -0.0887 -0.026 0.1383 0.01616 -0.07
-0.0707 -0.1103 -0.03714 -0.03564 -0.319 0.00268 -0.12085 -0.0836
0.0909 0.133 -0.01935 -0.03677 -0.11957 0.1545 -0.08307 0.1033
0.04218 -0.1588 0.1699 -0.02475 -0.1956 0.3728 -0.0869 -0.01246
0.0861 0.03796 -0.01325 0.0994 0.0715 -0.0443 -0.1431 -0.1443
0.071 -0.2097 -0.03958 0.02318 0.0202 -0.06104 -0.07574 0.132
0.01042 -0.02588 -0.1584 -0.2107 -0.2798 0.0889 -0.1255 0.02278
0.1912 -0.05865 -0.010345 0.2651 0.0255 -0.05624 -0.001522 -0.157
0.11926 -0.1505 0.0578 -0.12396 0.00516 0.077 -0.0715 -0.05954
0.0553 -0.012 0.0441 0.03693 -0.05316 -0.11444 0.1271 -0.0859
-0.01118 -0.05847 0.277 -0.1338 0.0383 0.0938 0.1292 0.079

arith.constant6 f2 [32, 64]
00000000: cc20 8f28 36b1 3130 131c 1eaa 9ab3 b7a9
00000010: 212d c1b1 1531 26b0 5e32 eab0 0daf cfb1
00000020: 00aa 012c 7c30 a32a c2a9 ce30 0e35 59b4
00000030: b9b1 e0ac 47b2 72af 71b3 46ae 35b2 7bb2
00000040: 6eb2 d330 cfb0 feb0 5eac 90a2 92b3 1caa
00000050: 3db4 e92b f8a8 71b3 8b30 3830 62a4 2332
00000060: 102f 9ab0 5328 84b1 3630 2faa d2ae 232f
00000070: 18b1 4429 26b1 12b3 7aae cab1 3e2e 72b1
00000080: c22f 0230 77a9 5cb0 01ac 9ab0 f62d cbb0
00000090: 1ead 22aa 542e cab3 56ad 912a 19b4 74b0
000000a0: 2d31 922f fcb0 d4ae fc2e 5031 b7b1 04a9
000000b0: 6e31 b5b2 60b4 04b2 bf31 0eb1 d0b1 522d
000000c0: 51b0 9832 c128 3fa6 5fb4 5a30 8c32 c22c
000000d0: d6b1 c02d 1331 74b2 54b4 56b0 792f 54b3
000000e0: 65b3 7c2a 9ead 7b31 ec30 3297 97a3 9c21
000000f0: e931 02b0 e6ad ce32 21ac d032 e7b3 eb31
00000100: da2b e8b1 09b0 f1b1 1e32 5baf 5db4 a830
00000110: 2fb3 112f 8630 fbb3 1ca5 0f32 70b3 a4af
00000120: efaf 922b 7532 80ac 2627 18aa f0b1 99ac
00000130: 08a7 5025 f7ad 71b2 a5af 5cb1 042e 32a8
00000140: 502f 6725 b928 8fa0 3f9d 8da9 722a 1827
00000150: 0eb1 6bb1 fbb3 9420 92b2 ef2e 1831 9eae
00000160: f92d b8a2 4ab4 acb2 2132 94ae f0b0 1b32
00000170: 0d2c c5a2 02b3 aa2e 472e 2d32 f930 4d31
00000180: 7930 6c30 5f1e baa9 e833 5832 6da7 0e31
00000190: ff2a acac 6530 e533 ee30 682e 58a9 a4a4
000001a0: a530 4030 90ad a42f 6e33 3d34 aba8 d634
000001b0: ac2d 8229 bc32 672c 682f d4a4 06ac 9d2d
000001c0: 3e34 efb2 2c32 8232 6230 0d2e 5fae c5af
000001d0: d632 6b2f 952a 612c 3d33 d4a5 fda9 2130
000001e0: 4b2e bcb2 6a33 6433 39b0 af34 02b2 b1ad
000001f0: 762f 6c30 baae 66b0 5eb0 be30 45af 04ac
0.00937 0.0356 -0.1628 0.131 0.00398 -0.0478 -0.2375 -0.04465
0.08014 -0.1798 0.1588 -0.1296 0.199 -0.1536 -0.11017 -0.1815
-0.04688 0.06256 0.1401 0.05185 -0.04498 0.1501 0.316 -0.2717
-0.1788 -0.0762 -0.1962 -0.11633 -0.2325 -0.098 -0.194 -0.2025
-0.2009 0.1508 -0.1503 -0.156 -0.06824 -0.01282 -0.2366 -0.04773
-0.265 0.0618 -0.03882 -0.2325 0.142 0.1318 -0.01712 0.1918
0.11035 -0.1438 0.03378 -0.1724 0.1316 -0.0483 -0.10657 0.1115
-0.1592 0.04114 -0.1609 -0.221 -0.1012 -0.1809 0.09753 -0.1702
0.1212 0.1252 -0.0427 -0.1362 -0.06256 -0.1438 0.09314 -0.1498
-0.07996 -0.0479 0.0989 -0.2434 -0.0834 0.0513 -0.256 -0.1392
0.1617 0.1183 -0.1558 -0.1067 0.10913 0.166 -0.1786 -0.03918
0.1697 -0.2096 -0.2734 -0.188 0.1796 -0.158 -0.1816 0.0831
-0.1349 0.206 0.03714 -0.0244 -0.2732 0.136 0.2046 0.07434
-0.1824 0.08984 0.1586 -0.2017 -0.2705 -0.1355 0.11676 -0.229
-0.2311 0.05066 -0.08777 0.1713 0.1538 -0.001757 -0.014824 0.010956
0.1847 -0.1252 -0.09216 0.2126 -0.0645 0.2129 -0.247 0.1849
0.06134 -0.1846 -0.1261 -0.1857 0.1912 -0.1149 -0.2727 0.1455
-0.2245 0.1104 0.1414 -0.2494 -0.01996 0.1893 -0.2324 -0.1194
-0.12396 0.05914 0.2018 -0.0703 0.02792 -0.0476 -0.1855 -0.07184
-0.02747 0.02075 -0.0932 -0.2013 -0.11945 -0.1675 0.094 -0.03278
0.11426 0.0211 0.0369 -0.0089 -0.005123 -0.04337 0.05035 0.02771
-0.158 -0.1693 -0.2494 0.00894 -0.2053 0.10834 0.1592 -0.1034
0.0933 -0.01312 -0.268 -0.2085 0.1915 -0.1028 -0.1543 0.1908
0.0633 -0.01322 -0.219 0.1041 0.0981 0.193 0.1554 0.1656
0.1398 0.1382 0.00622 -0.04474 0.2471 0.1982 -0.029 0.158
0.05466 -0.073 0.1373 0.2467 0.154 0.1001 -0.04175 -0.01813
0.1451 0.1328 -0.0869 0.1194 0.2322 0.265 -0.03647 0.3022
0.0886 0.04303 0.2104 0.0688 0.1157 -0.01886 -0.06287 0.0877
0.2651 -0.2167 0.1929 0.2034 0.137 0.09454 -0.09955 -0.1214
0.2136 0.1159 0.05142 0.0684 0.2262 -0.02277 -0.04678 0.129
0.0983 -0.2104 0.2317 0.231 -0.132 0.2927 -0.1877 -0.0889
0.1166 0.1382 -0.1051 -0.1375 -0.1365 0.1482 -0.1136 -0.06274

arith.constant7 f2 [1, 32]
00000000: b9b0 55b1 83b3 2636 16b6 55b6 4233 e434
00000010: cbb5 f0b0 9732 0431 9135 4eae 2ab4 b1a7
00000020: cd34 5d31 4b1e 7434 deb5 7834 6b36 85b2
00000030: 75b6 2833 c2b4 7eb4 cda9 5935 af31 a834
-0.1476 -0.1666 -0.2347 0.3843 -0.3804 -0.3958 0.2268 0.3057
-0.362 -0.1543 0.2059 0.1567 0.348 -0.0985 -0.2603 -0.03004
0.3 0.1676 0.006145 0.2783 -0.3667 0.2793 0.4011 -0.2037
-0.4036 0.2236 -0.2974 -0.2808 -0.04532 0.3342 0.1776 0.291
